…
OUTPUT_DIR: experiments/output/faster_rcnn/vgg16
PATHS_CATALOG: /home/iim321/liu/maskrcnn-benchmark/maskrcnn_benchmark/config/paths_catalog.py
SOLVER:
  BASE_LR: 0.001
  BIAS_LR_FACTOR: 2
  CHECKPOINT_PERIOD: 3000
  GAMMA: 0.1
  IMS_PER_BATCH: 2
  MAX_ITER: 10000
  MOMENTUM: 0.9
  STEPS: (4000, 8000)
  WARMUP_FACTOR: 0.3333333333333333
  WARMUP_ITERS: 500
  WARMUP_METHOD: linear
  WEIGHT_DECAY: 0.0001
  WEIGHT_DECAY_BIAS: 0
TEST:
  DETECTIONS_PER_IMG: 100
  EXPECTED_RESULTS: []
  EXPECTED_RESULTS_SIGMA_TOL: 4
  IMS_PER_BATCH: 2
GeneralizedRCNN(
  (backbone): Sequential(
    (body): VGG(
      (layer1): Sequential(
        (0): Conv2d(3, 64, kernel_size=(3, 3), stride=(1, 1), padding=(1, 1))
        (1): BatchNorm2d(64, eps=1e-05, momentum=0.1, affine=True, track_running_stats=True)
        (2): ReLU(inplace)
        (3): Conv2d(64, 64, kernel_size=(3, 3), stride=(1, 1), padding=(1, 1))
        (4): BatchNorm2d(64, eps=1e-05, momentum=0.1, affine=True, track_running_stats=True)
        (5): ReLU(inplace)
        (6): MaxPool2d(kernel_size=2, stride=2, padding=0, dilation=1, ceil_mode=False)
      )
      (layer2): Sequential(
        (0): Conv2d(64, 128, kernel_size=(3, 3), stride=(1, 1), padding=(1, 1))
        (1): BatchNorm2d(128, eps=1e-05, momentum=0.1, affine=True, track_running_stats=True)
        (2): ReLU(inplace)
        (3): Conv2d(128, 128, kernel_size=(3, 3), stride=(1, 1), padding=(1, 1))
        (4): BatchNorm2d(128, eps=1e-05, momentum=0.1, affine=True, track_running_stats=True)
        (5): ReLU(inplace)
        (6): MaxPool2d(kernel_size=2, stride=2, padding=0, dilation=1, ceil_mode=False)
      )
      (layer3): Sequential(
        (0): Conv2d(128, 256, kernel_size=(3, 3), stride=(1, 1), padding=(1, 1))
        (1): BatchNorm2d(256, eps=1e-05, momentum=0.1, affine=True, track_running_stats=True)
        (2): ReLU(inplace)
        (3): Conv2d(256, 256, kernel_size=(3, 3), stride=(1, 1), padding=(1, 1))
        (4): BatchNorm2d(256, eps=1e-05, momentum=0.1, affine=True, track_running_stats=True)
        (5): ReLU(inplace)
        (6): Conv2d(256, 256, kernel_size=(3, 3), stride=(1, 1), padding=(1, 1))
        (7): BatchNorm2d(256, eps=1e-05, momentum=0.1, affine=True, track_running_stats=True)
        (8): ReLU(inplace)
        (9): MaxPool2d(kernel_size=2, stride=2, padding=0, dilation=1, ceil_mode=False)
      )
      (layer4): Sequential(
        (0): Conv2d(256, 512, kernel_size=(3, 3), stride=(1, 1), padding=(1, 1))
        (1): BatchNorm2d(512, eps=1e-05, momentum=0.1, affine=True, track_running_stats=True)
        (2): ReLU(inplace)
        (3): Conv2d(512, 512, kernel_size=(3, 3), stride=(1, 1), padding=(1, 1))
        (4): BatchNorm2d(512, eps=1e-05, momentum=0.1, affine=True, track_running_stats=True)
        (5): ReLU(inplace)
        (6): Conv2d(512, 512, kernel_size=(3, 3), stride=(1, 1), padding=(1, 1))
        (7): BatchNorm2d(512, eps=1e-05, momentum=0.1, affine=True, track_running_stats=True)
        (8): ReLU(inplace)
        (9): MaxPool2d(kernel_size=2, stride=2, padding=0, dilation=1, ceil_mode=False)
      )
      (layer5): Sequential(
        (0): Conv2d(512, 512, kernel_size=(3, 3), stride=(1, 1), padding=(1, 1))
        (1): BatchNorm2d(512, eps=1e-05, momentum=0.1, affine=True, track_running_stats=True)
        (2): ReLU(inplace)
        (3): Conv2d(512, 512, kernel_size=(3, 3), stride=(1, 1), padding=(1, 1))
        (4): BatchNorm2d(512, eps=1e-05, momentum=0.1, affine=True, track_running_stats=True)
        (5): ReLU(inplace)
        (6): Conv2d(512, 512, kernel_size=(3, 3), stride=(1, 1), padding=(1, 1))
        (7): BatchNorm2d(512, eps=1e-05, momentum=0.1, affine=True, track_running_stats=True)
        (8): ReLU(inplace)
      )
    )
  )
  (rpn): RPNModule(
    (anchor_generator): AnchorGenerator(
      (cell_anchors): BufferList()
    )
    (head): RPNHead(
      (conv): Conv2d(512, 512, kernel_size=(3, 3), stride=(1, 1), padding=(1, 1))
      (cls_logits): Conv2d(512, 15, kernel_size=(1, 1), stride=(1, 1))
      (bbox_pred): Conv2d(512, 60, kernel_size=(1, 1), stride=(1, 1))
    )
    (box_selector_train): RPNPostProcessor()
    (box_selector_test): RPNPostProcessor()
  )
  (roi_heads): CombinedROIHeads(
    (box): ROIBoxHead(
      (feature_extractor): FastRCNNROIFeatureExtractor(
        (pooler): Pooler(
          (poolers): ModuleList(
            (0): ROIAlign(output_size=(14, 14), spatial_scale=0.0625, sampling_ratio=0)
          )
        )
      )
      (predictor): FastRCNNPredictor(
        (avgpool): AvgPool2d(kernel_size=7, stride=7, padding=0)
        (cls_score): Linear(in_features=2048, out_features=2, bias=True)
        (bbox_pred): Linear(in_features=2048, out_features=8, bias=True)
      )
      (post_processor): PostProcessor()
    )
  )
)
2019-02-21 21:23:58,308 maskrcnn_benchmark.utils.checkpoint INFO: Loading checkpoint from /home/iim321/.torch/models/vgg16_torch.pkl
2019-02-21 21:23:58,328 maskrcnn_benchmark.utils.c2_model_loading INFO: Remapping C2 weights
2019-02-21 21:23:58,328 maskrcnn_benchmark.utils.c2_model_loading INFO: C2 name: layer1_0_b mapped name: layer1.0.bias
…
